…
50 4GB&lt;/li&gt;&#xA;&lt;/ul&gt;&#xA;&lt;p&gt;Networking topology&lt;/p&gt;&#xA;&lt;ul&gt;&#xA;&lt;li&gt;Unet&lt;/li&gt;&#xA;&lt;li&gt;Input Shape (256,256,4)&lt;/li&gt;&#xA;&lt;/ul&gt;&#xA;&lt;pre&gt;&lt;code&gt;Model: &amp;quot;functional_1&amp;quot;&#xA;__________________________________________________________________________________________________&#xA;Layer (type)                    Output Shape         Param #     Connected to                     &#xA;==================================================================================================&#xA;input_1 (InputLayer)            [(None, 256, 256, 4) 0                                            &#xA;__________________________________________________________________________________________________&#xA;conv2d (Conv2D)                 (None, 256, 256, 64) 2368        input_1[0][0]                    &#xA;__________________________________________________________________________________________________&#xA;dropout (Dropout)               (None, 256, 256, 64) 0           conv2d[0][0]                     &#xA;__________________________________________________________________________________________________&#xA;conv2d_1 (Conv2D)               (None, 256, 256, 64) 36928       dropout[0][0]                    &#xA;__________________________________________________________________________________________________&#xA;max_pooling2d (MaxPooling2D)    (None, 128, 128, 64) 0           conv2d_1[0][0]                   &#xA;__________________________________________________________________________________________________&#xA;conv2d_2 (Conv2D)               (None, 128, 128, 128 73856       max_pooling2d[0][0]              &#xA;__________________________________________________________________________________________________&#xA;dropout_1 (Dropout)             (None, 128, 128, 128 0           conv2d_2[0][0]                   &#xA;__________________________________________________________________________________________________&#xA;conv2d_3 (Conv2D)               (None, 128, 128, 128 147584      dropout_1[0][0]                  &#xA;__________________________________________________________________________________________________&#xA;max_pooling2d_1 (MaxPooling2D)  (None, 64, 64, 128)  0           conv2d_3[0][0]                   &#xA;__________________________________________________________________________________________________&#xA;conv2d_4 (Conv2D)               (None, 64, 64, 256)  295168      max_pooling2d_1[0][0]            &#xA;__________________________________________________________________________________________________&#xA;dropout_2 (Dropout)             (None, 64, 64, 256)  0           conv2d_4[0][0]                   &#xA;__________________________________________________________________________________________________&#xA;conv2d_5 (Conv2D)               (None, 64, 64, 256)  590080      dropout_2[0][0]                  &#xA;__________________________________________________________________________________________________&#xA;max_pooling2d_2 (MaxPooling2D)  (None, 32, 32, 256)  0           conv2d_5[0][0]                   &#xA;__________________________________________________________________________________________________&#xA;conv2d_6 (Conv2D)               (None, 32, 32, 512)  1180160     max_pooling2d_2[0][0]            &#xA;__________________________________________________________________________________________________&#xA;dropout_3 (Dropout)             (None, 32, 32, 512)  0           conv2d_6[0][0]                   &#xA;__________________________________________________________________________________________________&#xA;conv2d_7 (Conv2D)               (None, 32, 32, 512)  2359808     dropout_3[0][0]                  &#xA;__________________________________________________________________________________________________&#xA;conv2d_transpose (Conv2DTranspo (None, 64, 64, 256)  524544      conv2d_7[0][0]                   &#xA;__________________________________________________________________________________________________&#xA;concatenate (Concatenate)       (None, 64, 64, 512)  0           conv2d_transpose[0][0]           &#xA;                                                                 conv2d_5[0][0]                   &#xA;__________________________________________________________________________________________________&#xA;conv2d_8 (Conv2D)               (None, 64, 64, 256)  1179904     concatenate[0][0]                &#xA;__________________________________________________________________________________________________&#xA;dropout_4 (Dropout)             (None, 64, 64, 256)  0           conv2d_8[0][0]                   &#xA;__________________________________________________________________________________________________&#xA;conv2d_9 (Conv2D)               (None, 64, 64, 256)  590080      dropout_4[0][0]                  &#xA;__________________________________________________________________________________________________&#xA;conv2d_transpose_1 (Conv2DTrans (None, 128, 128, 128 131200      conv2d_9[0][0]                   &#xA;__________________________________________________________________________________________________&#xA;concatenate_1 (Concatenate)     (None, 128, 128
…
28 295040      concatenate_1[0][0]              &#xA;__________________________________________________________________________________________________&#xA;dropout_5 (Dropout)             (None, 128, 128, 128 0           conv2d_10[0][0]                  &#xA;__________________________________________________________________________________________________&#xA;conv2d_11 (Conv2D)              (None, 128, 128, 128 147584      dropout_5[0][0]                  &#xA;__________________________________________________________________________________________________&#xA;conv2d_transpose_2 (Conv2DTrans (None, 256, 256, 64) 32832       conv2d_11[0][0]                  &#xA;__________________________________________________________________________________________________&#xA;concatenate_2 (Concatenate)     (None, 256, 256, 128 0           conv2d_transpose_2[0][0]         &#xA;                                                                 conv2d_1[0][0]                   &#xA;__________________________________________________________________________________________________&#xA;conv2d_12 (Conv2D)              (None, 256, 256, 64) 73792       concatenate_2[0][0]              &#xA;__________________________________________________________________________________________________&#xA;dropout_6 (Dropout)             (None, 256, 256, 64) 0           conv2d_12[0][0]                  &#xA;__________________________________________________________________________________________________&#xA;conv2d_13 (Conv2D)              (None, 256, 256, 64) 36928       dropout_6[0][0]                  &#xA;__________________________________________________________________________________________________&#xA;conv2d_14 (Conv2D)              (None, 256, 256, 1)  65          conv2d_13[0][0]                  &#xA;==================================================================================================&#xA;Total params: 7,697,921&#xA;Trainable params: 7,697,921&#xA;Non-trainable params: 0&#xA;&lt;/code&gt;&lt;/pre&gt;&#xA;&lt;p&gt;&lt;strong&gt;This is the error given.&lt;/strong&gt;&lt;/p&gt;&#xA;&lt;pre&gt;&lt;code&gt;-------------------------------
…
e/gpu/gpu_device.cc:1165]      0 &#xA;2020-05-22 13:03:50.682438: I tensorflow/core/common_runtime/gpu/gpu_device.cc:1178] 0:   N&#xA;2020-05-22 13:03:50.686257: I tensorflow/core/common_runtime/gpu/gpu_device.cc:1304] Created TensorFlow device (/device:GPU:0 with 4630 MB memory) -&amp;gt; physical GPU (device: 0, name: GeForce GTX 1660, pci bus id: 0000:01:00.0, compute capability: 7.5)&#xA;Loading... Done.&#xA;&#xA;G                           Params    OutputShape       WeightShape     &#xA;---                         ---       ---               ---&#xA;latents_in                  -         (?, 512)          -&#xA;labels_in                   -         (?, 0)            -&#xA;lod                         -         ()                -&#xA;dlatent_avg                 -         (512,)            -&#xA;G_mapping/latents_in        -         (?, 512)          -&#xA;G_mapping/labels_in         -         (?, 0)            -&#xA;G_mapping/Normalize         -         (?, 512)          -&#xA;G_mapping/Dense0            262656    (?, 512)          (512, 512)&#xA;G_mapping/Dense1            262656    (?, 512)          (512, 512)&#xA;G_mapping/Dense2            262656    (?, 512)          (512, 512)&#xA;G_mapping/Dense3            262656    (?, 512)          (512, 512)&#xA;G_mapping/Dense4            262656    (?, 512)          (512, 512)&#xA;G_mapping/Dense5            262656    (?, 512)          (512, 512)&#xA;G_mapping/Dense6            262656    (?, 512)          (512, 512)&#xA;G_mapping/Dense7            262656    (?, 512)          (512, 512)&#xA;G_mapping/Broadcast         -         (?, 10, 512)      -&#xA;G_mapping/dlatents_out      -         (?, 10, 512)      -&#xA;Truncation/Lerp             -         (?, 10, 512)      -&#xA;G_synthesis/dlatents_in     -         (?, 10, 512)      -&#xA;G_synthesis/4x4/Const       8192      (?, 512, 4, 4)    (1, 512, 4, 4)&#xA;G_synthesis/4x4/Conv        2622465   (?, 512, 4, 4)    (3, 3, 512, 512)&#xA;G_synthesis/4x4/ToRGB       264195    (?, 3, 4, 4)      (1, 1, 512, 3)&#xA;G_synthesis/8x8/Conv0_up    2622465   (?, 512, 8, 8)    (3, 3, 512, 512)&#xA;G_synthesis/8x8/Conv1       2622465   (?, 512, 8, 8)    (3, 3, 512, 512)&#xA;G_synthesis/8x8/Upsample    -         (?, 3, 8, 8)      -&#xA;G_synthesis/8x8/ToRGB       264195    (?, 3, 8, 8)      (1, 1, 512, 3)&#xA;G_synthesis/16x16/Conv0_up  2622465   (?, 512, 16, 16)  (3, 3, 512, 512)&#xA;G_synthesis/16x16/Conv1     2622465   (?, 512, 16, 16)  (3, 3, 512, 512)&#xA;G_synthesis/16x16/Upsample  -         (?, 3, 16, 16)    -&#xA;G_synthesis/16x16/ToRGB     264195    (?, 3, 16, 16)    (1, 1, 512, 3)&#xA;G_synthesis/32x32/Conv0_up  2622465   (?, 512, 32, 32)  (3, 3, 512, 512)&#xA;G_synthesis/32x32/Conv1     2622465   (?, 512, 32, 32)  (3, 3, 512, 512)&#xA;G_synthesis/32x32/Upsample  -         (?, 3, 32, 32)    -&#xA;G_synthesis/32x32/ToRGB     264195    (?, 3, 32, 32)    (1, 1, 512, 3)&#xA;G_synthesis/64x64/Conv0_up  1442561   (?, 256, 64, 64)  (3, 3, 512, 256)&#xA;G_synthesis/64x64/Conv1     721409    (?, 256, 64, 64)  (3, 3, 256, 256)&#xA;G_synthesis/64x64/Upsample  -         (?, 3, 64, 64)    -&#xA;G_synthesis/64x64/ToRGB     132099    (?, 3, 64, 64)    (1, 1, 256, 3)&#xA;G_synthesis/images_out      -         (?, 3, 64, 64)    -&#xA;G_synthesis/noise0          -         (1, 1, 4, 4)      -&#xA;G_synthesis/noise1          -         (1, 1, 8, 8)      -&#xA;G_synthesis/noise2          -         (1, 1, 8, 8)      -&#xA;G_synthesis/noise3          -         (1, 1, 16, 16)    -&#xA;G_synthesis/noise4          -         (1, 1, 16, 16)    -&#xA;G_synthesis/noise5          -         (1, 1, 32, 32)    -&#xA;G_synthesis/noise6          -         (1, 1, 32, 32)    -&#xA;G_synthesis/noise7          -         (1, 1, 64, 64)    -&#xA;G_synthesis/noise8          -         (1, 1, 64, 64)    -&#xA;images_out                  -         (?, 3, 64, 64)    -&#xA;---                         ---       ---               ---&#xA;Total                       23819544&#xA;&#xA;&#xA;D                    Params    OutputShape       WeightShape&#xA;---                  ---       ---               ---&#xA;images_in            -         (?, 3, 64, 64)    -&#xA;labels_in            -         (?, 0)            -&#xA;64x64/FromRGB        1024      (?, 256, 64, 64)  (1, 1, 3, 256)&#xA;64x64/Conv0          590080    (?, 256, 64, 64)  (3, 3, 256, 256)&#xA;64x64/Conv1_down     1180160   (?, 512, 32, 32)  (3, 3, 256, 512)&#xA;64x64/Skip           131072    (?, 512, 32, 32)  (1, 1, 256, 512)&#xA;32x32/Conv0          2359808   (?, 512, 32, 32)  (3, 3, 512, 512)&#xA;32x32/Conv1_down     2359808   (?, 512, 16, 16)
…
ctivation='softmax'))&#xA;&#xA;#compiling the model&#xA;model1.compile(loss='sparse_categorical_crossentropy',optimizer='adam',metrics=['accuracy'])&#xA;&#xA;model1.summary()&#xA;&#xA;&lt;/code&gt;&lt;/pre&gt;&#xA;&lt;p&gt;output:&lt;/p&gt;&#xA;&lt;pre class=&quot;lang-none prettyprint-override&quot;&gt;&lt;code&gt;Model: &amp;quot;sequential_5&amp;quot;&#xA;_________________________________________________________________&#xA;Layer (type)                 Output Shape              Param #   &#xA;=================================================================&#xA;conv1d_5 (Conv1D)            (None, 56, 32)            128       &#xA;_________________________________________________________________&#xA;max_pooling1d_5 (MaxPooling1 (None, 28, 32)            0         &#xA;_________________________________________________________________&#xA;flatten_6 (Flatten)          (None, 896)               0         &#xA;_________________________________________________________________&#xA;dense_11 (Dense)             (None, 128)               114816    &#xA;_________________________________________________________________&#xA;flatten_7 (Flatten)          (None, 128)               0         &#xA;_________________________________________________________________&#xA;dense_12 (Dense)             (None, 64)                8256      &#xA;_________________________________________________________________&#xA;dense_13 (Dense)             (None, 2)                 130       &#xA;=================================================================&#xA;Total params: 123,330&#xA;Trainable params: 123,330&#xA;Non-trainable params: 0&#xA;&#xA;&lt;/code&gt;&lt;/pre&gt;&#xA;&lt;p&gt;fitting the model and evaluate it&lt;/p&gt;&#xA;&lt;pre&gt;&lt;code&gt;#fitting the model&#xA;history = model1.fit(X_train,y_train,batch_size=32 ,epochs=50 ,verbose=1)&#xA;&#xA;#evaluting th
…
